model_str_def: lstm8_f_o1
len_stations:  23
layer_strings:['i118', 'lstm8', 'f', 'o1']
Model summary:
Model: "model_20"
_________________________________________________________________
 Layer (type)                Output Shape              Param #   
=================================================================
 input_21 (InputLayer)       [(None, 944)]             0         
                                                                 
 reshape_20 (Reshape)        (None, 118, 8)            0         
                                                                 
 permute_20 (Permute)        (None, 8, 118)            0         
                                                                 
 lstm_18 (LSTM)              (None, 184)               223008    
                                                                 
 flatten_40 (Flatten)        (None, 184)               0         
                                                                 
 dense_60 (Dense)            (None, 23)                4255      
                                                                 
=================================================================
Total params: 227,263
Trainable params: 227,263
Non-trainable params: 0
_________________________________________________________________
None
Creating new scalers
Epoch 1/100
18/18 - 2s - loss: 0.1094 - val_loss: 0.0516 - 2s/epoch - 109ms/step
Epoch 2/100
18/18 - 1s - loss: 0.0563 - val_loss: 0.0494 - 598ms/epoch - 33ms/step
…
18/18 - 1s - loss: 0.0056 - val_loss: 0.0213 - 596ms/epoch - 33ms/step
Model saved to .\Experiments\6years\models\mtl_i118_lstm8_f_o1
Training time: 1 min
model_str_def: g8_f_o1
len_stations:  23
layer_strings:['i118', 'g8', 'f', 'o1']
Model summary:
Model: "model_21"
_________________________________________________________________
 Layer (type)                Output Shape              Param #   
=================================================================
 input_22 (InputLayer)       [(None, 944)]             0         
                                                                 
 reshape_21 (Reshape)        (None, 118, 8)            0         
                                                                 
 permute_21 (Permute)        (None, 8, 118)            0         
                                                                 
 gru_2 (GRU)                 (None, 8, 184)            167808    
                                                                 
 flatten_41 (Flatten)        (None, 1472)              0         
                                                                 
 dense_61 (Dense)            (None, 23)                33879     
                                                                 
=================================================================
Total params: 201,687
Trainable params: 201,687
Non-trainable params: 0
_________________________________________________________________
None
Creating new scalers
Epoch 1/100
18/18 - 2s - loss: 0.0711 - val_loss: 0.0395 - 2s/epoch - 97ms/step
Epoch 2/100
18/18 - 0s - loss: 0.0253 - val_loss: 0.0270 - 484ms/epoch - 27ms/step
…
model_str_def: resnet_8_2
len_stations:  23
Model summary:
Model: "model_22"
__________________________________________________________________________________________________
 Layer (type)                   Output Shape         Param #     Connected to                     
==================================================================================================
 input_23 (InputLayer)          [(None, 944)]        0           []                               
                                                                                                  
 reshape_22 (Reshape)           (None, 118, 8)       0           ['input_23[0][0]']               
                                                                                                  
 dropout_40 (Dropout)           (None, 118, 8)       0           ['reshape_22[0][0]']             
                                                                                                  
 padding1_branch2a (ZeroPadding  (None, 120, 8)      0           ['dropout_40[0][0]']             
 1D)                                                                                              
                                                                                                  
 res1_branch2a (Conv1D)         (None, 118, 8)       192         ['padding1_branch2a[0][0]']      
                                                                                                  
 batch_normalization (BatchNorm  (None, 118, 8)      32          ['res1_branch2a[0][0]']          
 alization)                                                                                       
                                                                                                  
 res1_branch2a_relu (Activation  (None, 118, 8)      0           ['batch_normalization[0][0]']    
 )                                                                                                
                                                                                                  
 padding1_branch2b (ZeroPadding  (None, 120, 8)      0           ['res1_branch2a_relu[0][0]']     
 1D)                                                                                              
                                                                                                  
 res1_branch2b (Conv1D)         (None, 118, 8)       192         ['padding1_branch2b[0][0]']      
                                                                                                  
 batch_normalization_1 (BatchNo  (None, 118, 8)      32          ['res1_branch2b[0][0]']          
 rmalization)                                                                                     
                                                                                                  
 flatten_42 (Flatten)           (None, 944)          0           ['batch_normalization_1[0][0]']  
                                                                                                  
 dense_62 (Dense)               (None, 184)          173880      ['flatten_42[0][0]']             
                                                                                                  
 dense_63 (Dense)               (None, 184)          173880      ['input_23[0][0]']               
                                                                                                  
 res1_add (Add)                 (None, 184)          0           ['dense_62[0][0]',               
                                                                  'dense_63[0][0]']               
                                                                                                  
 dropout_41 (Dropout)           (None, 184)          0           ['res1_add[0][0]']               
                                                                                                  
 res_relu (Activation)          (None, 184)          0           ['dropout_41[0][0]']             
                                                                                                  
 dense_64 (Dense)               (None, 46)           8510        ['res_relu[0][0]']               
                                                                                                  
 output (Dense)                 (None, 23)           1081        ['dense_64[0][0]']               
                                                                                                  
==================================================================================================
Total params: 357,799
Trainable params: 357,767
Non-trainable params: 32
__________________________________________________________________________________________________
…
output_shape:  (2192, 23)
layer_type:  lstm
input shape:  944
Model summary:
Model: "model_23"
__________________________________________________________________________________________________
 Layer (type)                   Output Shape         Param #     Connected to                     
==================================================================================================
 input_24 (InputLayer)          [(None, 944)]        0           []                               
                                                                                                  
 reshape_23 (Reshape)           (None, 118, 8)       0           ['input_24[0][0]']               
                                                                                                  
 dropout_42 (Dropout)           (None, 118, 8)       0           ['reshape_23[0][0]']             
                                                                                                  
 permute_22 (Permute)           (None, 8, 118)       0           ['dropout_42[0][0]']             
                                                                                                  
 conv1d_20 (Conv1D)             (None, 8, 118)       14042       ['permute_22[0][0]']             
                                                                                                  
 flatten_43 (Flatten)           (None, 944)          0           ['conv1d_20[0][0]']              
                                                                                                  
 dense_65 (Dense)               (None, 184)          173880      ['flatten_43[0][0]']             
                                                                                                  
 dense_67 (Dense)               (None, 8, 184)       21896       ['permute_22[0][0]']             
                                                                                                  
 dropout_43 (Dropout)           (None, 184)          0           ['dense_65[0][0]']               
                                                                                                  
 lstm_19 (LSTM)                 (None, 8, 46)        42504       ['dense_67[0][0]']               
                                                                                                  
 dense_66 (Dense)               (None, 46)           8510        ['dropout_43[0][0]']             
                                                                                                  
 flatten_44 (Flatten)           (None, 368)          0           ['lstm_19[0][0]']                
                                                                                                  
 mlp_output (Dense)             (None, 23)           1081        ['dense_66[0][0]']               
                                                                                                  
 lstm_output (Dense)            (None, 23)           8487        ['flatten_44[0][0]']             
                                                                                                  
 res_add (Add)                  (None, 23)           0           ['mlp_output[0][0]',             
                                                                  'lstm_output[0][0]']            
                                                                                                  
 res_relu (LeakyReLU)           (None, 23)           0           ['res_add[0][0]']                
                                                                                                  
==================================================================================================
Total params: 270,400
Trainable params: 256,358
Non-trainable params: 14,042
__________________________________________________________________________________________________
…
output_shape:  (2192, 23)
layer_type:  gru
input shape:  944
Model summary:
Model: "model_24"
__________________________________________________________________________________________________
 Layer (type)                   Output Shape         Param #     Connected to                     
==================================================================================================
 input_25 (InputLayer)          [(None, 944)]        0           []                               
                                                                                                  
 reshape_24 (Reshape)           (None, 118, 8)       0           ['input_25[0][0]']               
                                                                                                  
 dropout_44 (Dropout)           (None, 118, 8)       0           ['reshape_24[0][0]']             
                                                                                                  
 permute_23 (Permute)           (None, 8, 118)       0           ['dropout_44[0][0]']             
                                                                                                  
 conv1d_21 (Conv1D)             (None, 8, 118)       14042       ['permute_23[0][0]']             
                                                                                                  
 flatten_45 (Flatten)           (None, 944)          0           ['conv1d_21[0][0]']              
                                                                                                  
 dense_68 (Dense)               (None, 184)          173880      ['flatten_45[0][0]']             
                                                                                                  
 dense_70 (Dense)               (None, 8, 184)       21896       ['permute_23[0][0]']             
                                                                                                  
 dropout_45 (Dropout)           (None, 184)          0           ['dense_68[0][0]']               
                                                                                                  
 gru_3 (GRU)                    (None, 8, 46)        32016       ['dense_70[0][0]']               
                                                                                                  
 dense_69 (Dense)               (None, 46)           8510        ['dropout_45[0][0]']             
                                                                                                  
 flatten_46 (Flatten)           (None, 368)          0           ['gru_3[0][0]']                  
                                                                                                  
 mlp_output (Dense)             (None, 23)           1081        ['dense_69[0][0]']               
                                                                                                  
 lstm_output (Dense)            (None, 23)           8487        ['flatten_46[0][0]']             
                                                                                                  
 res_add (Add)                  (None, 23)           0           ['mlp_output[0][0]',             
                                                                  'lstm_output[0][0]']            
                                                                                                  
 res_relu (LeakyReLU)           (None, 23)           0           ['res_add[0][0]']                
                                                                                                  
==================================================================================================
Total params: 259,912
Trainable params: 245,870
Non-trainable params: 14,042
__________________________________________________________________________________________________
…
model_str_def: transformer
len_stations:  23
Model summary:
Model: "model_25"
__________________________________________________________________________________________________
 Layer (type)                   Output Shape         Param #     Connected to                     
==================================================================================================
 input_26 (InputLayer)          [(None, 944)]        0           []                               
                                                                                                  
 reshape_25 (Reshape)           (None, 118, 8)       0           ['input_26[0][0]']               
                                                                                                  
 dropout_46 (Dropout)           (None, 118, 8)       0           ['reshape_25[0][0]']             
                                                                                                  
 layer_normalization (LayerNorm  (None, 118, 8)      16          ['dropout_46[0][0]']             
 alization)                                                                                       
                                                                                                  
 multi_head_attention (MultiHea  (None, 118, 8)      35848       ['layer_normalization[0][0]',    
 dAttention)                                                      'layer_normalization[0][0]']    
                                                                                                  
 dropout_47 (Dropout)           (None, 118, 8)       0           ['multi_head_attention[0][0]']   
                                                                                                  
 tf.__operators__.add (TFOpLamb  (None, 118, 8)      0           ['dropout_47[0][0]',             
 da)                                                              'dropout_46[0][0]']             
                                                                                                  
 layer_normalization_1 (LayerNo  (None, 118, 8)      16          ['tf.__operators__.add[0][0]']   
 rmalization)                                                                                     
                                                                                                  
 conv1d_22 (Conv1D)             (None, 118, 4)       36          ['layer_normalization_1[0][0]']  
                                                                                                  
 dropout_48 (Dropout)           (None, 118, 4)       0           ['conv1d_22[0][0]']              
                                                                                                  
 conv1d_23 (Conv1D)             (None, 118, 8)       40          ['dropout_48[0][0]']             
                                                                                                  
 tf.__operators__.add_1 (TFOpLa  (None, 118, 8)      0           ['conv1d_23[0][0]',              
 mbda)                                                            'tf.__operators__.add[0][0]']   
                                                                                                  
 layer_normalization_2 (LayerNo  (None, 118, 8)      16          ['tf.__operators__.add_1[0][0]'] 
 rmalization)                                                                                     
                                                                                                  
 multi_head_attention_1 (MultiH  (None, 118, 8)      35848       ['layer_normalization_2[0][0]',  
 eadAttention)                                                    'layer_normalization_2[0][0]']  
                                                                                                  
 dropout_49 (Dropout)           (None, 118, 8)       0           ['multi_head_attention_1[0][0]'] 
                                                                                                  
 tf.__operators__.add_2 (TFOpLa  (None, 118, 8)      0           ['dropout_49[0][0]',             
 mbda)                                                            'tf.__operators__.add_1[0][0]'] 
                                                                                                  
 layer_normalization_3 (LayerNo  (None, 118, 8)      16          ['tf.__operators__.add_2[0][0]'] 
 rmalization)                                                                                     
                                                                                                  
 conv1d_24 (Conv1D)             (None, 118, 4)       36          ['layer_normalization_3[0][0]']  
                                                                                                  
 dropout_50 (Dropout)           (None, 118, 4)       0           ['conv1d_24[0][0]']              
                                                                                                  
 conv1d_25 (Conv1D)             (None, 118, 8)       40          ['dropout_50[0][0]']             
                                                                                                  
 tf.__operators__.add_3 (TFOpLa  (None, 118, 8)      0           ['conv1d_25[0][0]',              
 mbda)                                                            'tf.__operators__.add_2[0][0]'] 
                                                                                                  
 layer_normalization_4 (LayerNo  (None, 118, 8)      16          ['tf.__operators__.add_3[0][0]'] 
 rmalization)                                                                                     
                                                                                                  
 multi_head_attention_2 (MultiH  (None, 118, 8)      35848       ['layer_normalization_4[0][0]',  
 eadAttention)                                                    'layer_normalization_4[0][0]']  
                                                                                                  
 dropout_51 (Dropout)           (None, 118, 8)       0           ['multi_head_attention_2[0][0]'] 
                                                                                                  
 tf.__operators__.add_4 (TFOpLa  (None, 118, 8)      0           ['dropout_51[0][0]',             
 mbda)                                                            'tf.__operators__.add_3[0][0]'] 
                                                                                                  
 layer_normalization_5 (LayerNo  (None, 118, 8)      16          ['tf.__operators__.add_4[0][0]'] 
 rmalization)                                                                                     
                                                                                                  
 conv1d_26 (Conv1D)             (None, 118, 4)       36          ['layer_normalization_5[0][0]']  
                                                                                                  
 dropout_52 (Dropout)           (None, 118, 4)       0           ['conv1d_26[0][0]']              
                                                                                                  
 conv1d_27 (Conv1D)             (None, 118, 8)       40          ['dropout_52[0][0]']             
                                                                                                  
 tf.__operators__.add_5 (TFOpLa  (None, 118, 8)      0           ['conv1d_27[0][0]',              
 mbda)                                                            'tf.__operators__.add_4[0][0]'] 
                                                                                                  
 layer_normalization_6 (LayerNo  (None, 118, 8)      16          ['tf.__operators__.add_5[0][0]'] 
 rmalization)                                                                                     
                                                                                                  
 multi_head_attention_3 (MultiH  (None, 118, 8)      35848       ['layer_normalization_6[0][0]',  
 eadAttention)                                                    'layer_normalization_6[0][0]']  
                                                                                                  
 dropout_53 (Dropout)           (None, 118, 8)       0           ['multi_head_attention_3[0][0]'] 
                                                                                                  
 tf.__operators__.add_6 (TFOpLa  (None, 118, 8)      0           ['dropout_53[0][0]',             
 mbda)                                                            'tf.__operators__.add_5[0][0]'] 
                                                                                                  
 layer_normalization_7 (LayerNo  (None, 118, 8)      16          ['tf.__operators__.add_6[0][0]'] 
 rmalization)                                                                                     
                                                                                                  
 conv1d_28 (Conv1D)             (None, 118, 4)       36          ['layer_normalization_7[0][0]']  
                                                                                                  
 dropout_54 (Dropout)           (None, 118, 4)       0           ['conv1d_28[0][0]']              
                                                                                                  
 conv1d_29 (Conv1D)             (None, 118, 8)       40          ['dropout_54[0][0]']             
                                                                                                  
 tf.__operators__.add_7 (TFOpLa  (None, 118, 8)      0           ['conv1d_29[0][0]',              
 mbda)                                                            'tf.__operators__.add_6[0][0]'] 
                                                                                                  
 global_average_pooling1d (Glob  (None, 118)         0           ['tf.__operators__.add_7[0][0]'] 
 alAveragePooling1D)                                                                              
                                                                                                  
 dense_71 (Dense)               (None, 128)          15232       ['global_average_pooling1d[0][0]'
                                                                 ]                                
                                                                                                  
 dropout_55 (Dropout)           (None, 128)          0           ['dense_71[0][0]']               
                                                                                                  
 dense_72 (Dense)               (None, 23)           2967        ['dropout_55[0][0]']             
                                                                                                  
 res_relu (LeakyReLU)           (None, 23)           0           ['dense_72[0][0]']               
                                                                                                  
==================================================================================================
Total params: 162,023
Trainable params: 162,023
Non-trainable params: 0
__________________________________________________________________________________________________
…
